data.pth (torch, 10207 bytes, 6 tensors)

l1.weight f4 [8, 147]
0	0x3f311c9c	0.6918428
1	0x3edbc290	0.42921877
2	0x3f0e054d	0.5547684
3	0x3f5e9138	0.86940336
4	0x3e806d92	0.25083596
5	0x3e623440	0.22090244
6	0xbe579981	-0.21054651
7	0xbeda1d38	-0.42600417
8	0x3ec77f65	0.38964382
9	0x3e8a7f0e	0.2705006
10	0x3e448cbf	0.19194315
11	0x3e642674	0.22280294
12	0xbe9073e6	-0.28213423
13	0xbcb29244	-0.02179826
14	0x3e7c9d4a	0.24669376
15	0x3e7f6f3c	0.24944776
16	0x3f3de8bf	0.7418327
17	0x3ee5a9f3	0.44856223
18	0x3edb6a8e	0.42854732
19	0xbcdb3661	-0.026759328
20	0xbed37f14	-0.4130789
21	0xbe4b7e6a	-0.19872442
22	0xbda1e7b8	-0.07905525
23	0x3ca93168	0.020653442
24	0x3e1ac935	0.15115817
25	0x3de410b3	0.111359976
26	0x3f084eea	0.53245413
27	0x3eabf6b0	0.33586645
28	0x3eb39b56	0.3507945
29	0xbd301bcf	-0.04299527
30	0x3f360eb1	0.7111617
31	0x3e95e1a1	0.29273704
32	0xbe3d2001	-0.1846924
33	0x3e05b4f7	0.13057314
34	0xbe2c60a4	-0.1683374
35	0x3e42d00e	0.19024679
36	0xbf071508	-0.52766466
37	0xbef51915	-0.478707
38	0xbf124dae	-0.5714978
39	0x3eee33fb	0.46524033
40	0x3e17b7b1	0.14816166
41	0x3e39c37c	0.18140978
42	0xbe15194e	-0.14560434
43	0x3f4eddf3	0.8080742
44	0x3d596df5	0.05308338
45	0x3d4c0ac7	0.049814966
46	0x3f3adec2	0.7299615
47	0xbef31811	-0.474793
48	0x3e8c40e5	0.2739326
49	0xbf090ea9	-0.53537995
50	0x3d3edd86	0.04659798
51	0x3eacd866	0.3375885
52	0x3ef79172	0.48353153
53	0x3f1a3876	0.602424
54	0xbdd82a78	-0.10554975
55	0xbd97d3ac	-0.0741342
56	0x3e8c6d1b	0.2742699
57	0x3f55cdf6	0.83517396
58	0x3e3066b8	0.17226684
59	0x3e330332	0.17481688
60	0x3f2a73a7	0.6658272
61	0x3e0f2339	0.1397828
62	0x3e122ab3	0.14274101
63	0xbdffe1f9	-0.12494273
64	0x3d911ca3	0.0708554
65	0x3f4ba9c0	0.7955589
66	0xbf104bf4	-0.56365895
67	0x3e49595a	0.19662991
68	0x3ef352c4	0.47524083
69	0xbe10490a	-0.14090362
70	0x3eb83556	0.35978192
71	0x3f19cb7b	0.6007611
72	0x3f4169f4	0.75552297
73	0x3e2e2c0d	0.17008992
74	0x3e171b4c	0.14756507
75	0x3e4cddd9	0.20006503
76	0x3eecaa0b	0.46223482
77	0x3e2f6bc5	0.17130955
78	0xbe10d456	-0.141435
79	0x3f023349	0.50859505
80	0x3e94a119	0.29029158
81	0x3f20f009	0.62866265
82	0x3f3e727b	0.74393433
83	0x3f56b7e3	0.8387434
84	0xbf116bc7	-0.5680508
85	0x3dee047d	0.1162195
86	0xbdc8fdb0	-0.09814012
87	0xbd074f81	-0.033034805
88	0xbe8181d2	-0.25294358
89	0x3f1d41a8	0.6142831
90	0x3e637394	0.22212058
91	0xbf07afe2	-0.5300275
92	0xbe7ac052	-0.24487427
93	0xbe735010	-0.2376101
94	0x3ecaad0c	0.3958515
95	0x3f4815ef	0.7815847
96	0x3e1d44fc	0.15358347
97	0xbd7f7a8e	-0.062372737
98	0x3f95bb74	1.1697831
99	0x3ef74dea	0.4830163
100	0x3de68633	0.11256065
101	0x3e0f7771	0.14010407
102	0xbed574ae	-0.41690582
103	0x3f4406cc	0.7657287
104	0xbe5fbd9f	-0.21849678
105	0xbeff1b5a	-0.49825555
106	0x3f9046b1	1.1271573
107	0x3dda82ee	0.10669504
108	0xbdd5e655	-0.10444323
109	0x3f2fcb53	0.68669623
110	0xbeabe627	-0.3357403
111	0x3d4457f5	0.047935445
112	0x3e6ee52e	0.23329613
113	0x3f1c012e	0.609393
114	0x3f4553ec	0.7708118
115	0x3e3a8d62	0.18217996
116	0x3e39bbc4	0.18138033
117	0xbefff81f	-0.4999399
118	0x3e8fca0d	0.2808384
119	0x3fad5c67	1.3543824
120	0x3f2a97ad	0.6663769
121	0xbd9f7cae	-0.07787453
122	0x3d153f02	0.036437042
123	0x3e26bdad	0.16283293
124	0x3e3fad61	0.18718483
125	0x3f1b8953	0.60756415
126	0x3f8b050f	1.0860919
127	0x3e0ebc11	0.13938929
128	0x3e9c6722	0.30547434
129	0xbf20c7fa	-0.6280514
130	0x3e72383e	0.23654267
131	0x3f17eaae	0.5934247
132	0x3f68972a	0.9085566
133	0xbe909045	-0.2823507
134	0x3f0526b2	0.5201217
135	0x3e7b59c6	0.24545965
136	0x3d9a52d0	0.075353265
137	0xbe25bf13	-0.1618617
138	0xbeb14ff2	-0.34631306
139	0x3e95e89f	0.29279038
140	0x3e4500e0	0.19238615
141	0x3e519dbb	0.20470326
142	0xbe05624d	-0.1302578
143	0xbe718e61	-0.2358947
144	0x3e180d8b	0.14848916
145	0x3e649587	0.22322665
146	0x3f434595	0.7627805
147	0x3d45dd0f	0.04830652
148	0xbeebafc4	-0.46032536
149	0x3ed2ac3b	0.41147026
150	0x3f13cb34	0.5773194
151	0xbe10c216	-0.14136538
152	0x3d93fc1c	0.072258204
153	0x3cb33cf3	0.021879649
154	0xbedc457b	-0.4302176
155	0x3ece25cd	0.40263215
156	0xbe9be45f	-0.3044767
157	0xbe9a987f	-0.3019447
158	0x3ec9b322	0.3939448
159	0xbe452378	-0.19251812
160	0x3e715dcd	0.23570938
161	0x3dacc406	0.08435826
162	0x3d926a61	0.071491964
163	0xbeb5a44c	-0.3547691
164	0x3f2bbeb2	0.6708785
165	0xbe401c50	-0.187608
166	0x3f2b9301	0.67021185
167	0x3f52ef69	0.8239656
168	0xbda49ed1	-0.08038104
169	0x3ea9fa6b	0.33198866
170	0x3f12f858	0.5741019
171	0x3e093ebc	0.13402838
172	0x3d6e5c14	0.05819328
173	0x3ef57e52	0.47947937
174	0x3e90b1e1	0.2826071
175	0xbe40e28c	-0.18836421
176	0x3da0f6ce	0.07859574
177	0x3f774510	0.96589756
178	0x3eab6b65	0.33480373
179	0xbe2301ef	-0.15918706
180	0x3e25fcb1	0.16209675
181	0x3ea6e105	0.3259355
182	0x3f296f3e	0.6618537
183	0xbefc57ca	-0.49285728
184	0xbed8b8df	-0.42328545
185	0xbec6e68d	-0.3884777
186	0x3e9fdd87	0.312237
187	0x3e39fd19	0.18162955
188	0x3e1a260f	0.1505358
189	0xbde151a8	-0.11001903
190	0x3f212a2f	0.6295499
191	0xbebed8ac	-0.37274683
192	0x3d1551cb	0.036454957
193	0xbf2357fe	-0.6380614
194	0xbf10d64d	-0.56577
195	0x3f4518c6	0.76990926
196	0xbe8916c0	-0.2677517
197	0x3f613eea	0.87986624
198	0xbf042846	-0.5162395
199	0xbe5c9d7a	-0.21544448
200	0x3ed21f96	0.41039723
201	0xbf023517	-0.5086226
202	0x3f004bd2	0.5011569
203	0x3f1ae8df	0.60511583
204	0x3f68ab5f	0.9088649
205	0xbd851195	-0.06497494
206	0x3f6ba476	0.9204782
207	0x3e98274e	0.29717487
208	0x3f77c0f3	0.9677879
209	0x3f7a346a	0.9773623
210	0x3ee492a5	0.4464313
211	0x3d0e7fe5	0.03478994
212	0xbd3ce0ce	-0.046112828
213	0x3e6bd3d2	0.23030022
214	0xbe0ec20e	-0.13941213
215	0xbe3debfe	-0.18547055
216	0xbefa7ae1	-0.48921874
217	0x3ed470d6	0.41492337
218	0x3dee876d	0.11646924
219	0x3f253760	0.6453762
220	0x3cb93fec	0.022613488
221	0x3e0ccfd6	0.13751158
222	0x3e53265c	0.20620102
223	0x3f2bfb84	0.6718066
224	0x3e6de2fb	0.23231117
225	0x3eacf873	0.33783302
226	0x3eb0de59	0.34544638
227	0xbe39fb48	-0.18162262
228	0x3ed03f06	0.40673083
229	0xbf26572b	-0.6497676
230	0x3f213340	0.62968826
231	0x3e0f6a2b	0.14005344
232	0x3caf6b48	0.02141346
233	0xbd23e009	-0.04000858
234	0x3f128d80	0.5724716
235	0xbdf1d66d	-0.118084766
236	0xbebabc4c	-0.36471784
237	0x3d9f5799	0.0778038
238	0xbf064796	-0.5245298
239	0xbe57cec1	-0.21074964
240	0xbe36bc55	-0.1784528
241	0xbdb0989e	-0.086228594
242	0xbebd1536	-0.36930245
243	0x3ee8f5ac	0.45499933
244	0x3ee0e78f	0.43926665
245	0x3f139ecc	0.5766418
246	0x3f0b434c	0.5439956
247	0x3dbeda40	0.09318972
248	0x3e919173	0.2843128
249	0x3e3175d9	0.17330112
250	0x3f3c117a	0.7346417
251	0x3d3326fb	0.043738347
252	0xbe985c46	-0.297579
253	0xbef3b9d7	-0.47602722
254	0x3e927f0c	0.28612554
255	0xbe4aaaf5	-0.19791777

l1.bias f4 [8]
0	0x3f90d2be	1.1314313
1	0x3fb04d98	1.377368
2	0x3f8b7bd2	1.0897162
3	0x3f62da51	0.88614374
4	0x3f66ae0b	0.9010932
5	0x3f7c6bb7	0.9860186
6	0x3f7350c6	0.95045125
7	0x3f5ca78f	0.86193174

l2.weight f4 [8, 8]
0	0xbfc28e89	-1.5199748
1	0x3f221279	0.6330944
2	0x3f47c415	0.7803357
3	0x3e9ac0e8	0.302253
4	0xbc671bfa	-0.014105791
5	0x3f9692de	1.176357
6	0x3e4c2898	0.1993736
7	0xbe854671	-0.26030305
8	0x3edfe5ae	0.4372992
9	0x3f3e2dce	0.7428864
10	0x3ec94bfc	0.39315784
11	0xbf46dedd	-0.7768381
12	0x3fe1cd01	1.7640687
13	0x3f4414e8	0.765944
14	0xbed46ee9	-0.41490868
15	0xbf3b99ad	-0.73281366
16	0x3f8c8533	1.0978149
17	0x3fe6ec1c	1.8040805
18	0x3fb3a4d9	1.4034683
19	0x3f9063f7	1.1280507
20	0x3ea5d987	0.32392523
21	0xbf4ca6e6	-0.79942167
22	0x3fe4ddae	1.7880151
23	0xbf3aa240	-0.72903824
24	0xbe6fa15e	-0.234014
25	0x3f9000cb	1.1250242
26	0xbfa712bf	-1.3052596
27	0xbf162b6f	-0.58660024
28	0x3f576957	0.8414511
29	0x3f5d6e2d	0.8649624
30	0x3e9f85eb	0.3115686
31	0x3f7045c7	0.9385647
32	0x3f334077	0.7002024
33	0xbf08dde6	-0.5346359
34	0xbf8671b6	-1.0503452
35	0xbf8c718b	-1.097215
36	0x3f0df490	0.554513
37	0x3ecbbdf2	0.39793354
38	0x3ed2b38e	0.41152614
39	0x3dde6674	0.10859385
40	0x3fbfdf90	1.4990101
41	0xbe9018d1	-0.28143933
42	0xbf64a769	-0.8931795
43	0xbfacf534	-1.351233
44	0x3c42f7ad	0.011899871
45	0x3f53115d	0.8244837
46	0x3f5068d2	0.81409943
47	0x3fbda1f6	1.4815052
48	0x3f00218c	0.5005119
49	0x3fa16fef	1.2612284
50	0x3ecf3fb1	0.4047828
51	0x3f5e44f5	0.8682397
52	0xbf94e076	-1.1631
53	0x3f8dddd1	1.1083318
54	0xbfc2d630	-1.5221615
55	0x3fb4420b	1.4082655
56	0xbe8e3ecb	-0.27782282
57	0xbf2ac28f	-0.6670312
58	0x3fa49b0f	1.285982
59	0x3e773078	0.24139583
60	0x3f8704c2	1.0548327
61	0x3f9219c2	1.1414111
62	0xbe816393	-0.25271282
63	0xbd13f63e	-0.036123507

l2.bias f4 [8]
0	0x3ed338f2	0.41254383
1	0xbe5d60ac	-0.21618909
2	0x3f378770	0.71691036
3	0x3e67a1c7	0.22620307
4	0xbe82b149	-0.25525883
5	0x3efba40c	0.49148595
6	0x3edefd5e	0.4355268
7	0x3ec33b06	0.3813097

l3.weight f4 [21, 8]
0	0xbf5fcfd1	-0.8742648
1	0xbfddcb08	-1.7327585
2	0xbf9b5bc6	-1.2137382
3	0xbea01a7d	-0.3127021
4	0xbfc8bda2	-1.5682871
5	0x3ea76865	0.32696834
6	0x3ed2018b	0.41016802
7	0x3eb1450b	0.34622988
8	0x3ee37336	0.44423836
9	0xbfb6d342	-1.4283221
10	0xbf29243e	-0.66070926
11	0x3d10a028	0.035308987
12	0xbfefb865	-1.8728148
13	0xbf99d58f	-1.2018298
14	0x3eced242	0.4039479
15	0x3e6f5403	0.23371892
16	0x3c0926ec	0.008371096
17	0x3d6182ab	0.055056255
18	0x3e881015	0.2657477
19	0xbfa8b0cb	-1.3178953
20	0xbfe86dd4	-1.8158517
21	0xbfbf9117	-1.4966153
22	0xc0072bcf	-2.1120489
23	0x3f49d80a	0.78845274
24	0x3db2865d	0.08717034
25	0xbee81d32	-0.45334774
26	0x3f34f6fd	0.70689374
27	0xbe44bfc7	-0.19213782
28	0xbf17dc6f	-0.5932073
29	0xbfd6a6b7	-1.6769627
30	0xbf9fa545	-1.2472311
31	0xbfd36a5b	-1.6516832
32	0x3f0db4a7	0.5535378
33	0x3e70d522	0.23518804
34	0xbf08fcfe	-0.53511035
35	0xbf99602e	-1.1982477
36	0xc01e1959	-2.470297
37	0xbfa45575	-1.283858
38	0xbeb26575	-0.3484303
39	0x3e59870a	0.2124292
40	0x3ec91805	0.39276138
41	0xc00f3481	-2.2375796
42	0x3e8569f2	0.26057392
43	0xbfb915b5	-1.445975
44	0xbe29b295	-0.1657203
45	0xbfa47164	-1.2847104
46	0xbe9a4ca5	-0.301366
47	0x3f0ba5e6	0.54550016
48	0xbf151891	-0.5824061
49	0xbfd8eb1a	-1.6946747
50	0x3dfab569	0.122416325
51	0xbf1042e7	-0.56352085
52	0x3f243bbb	0.6415364
53	0x3f2bff9d	0.6718691
54	0xbfb65514	-1.4244714
55	0xbf38f1a0	-0.7224369
56	0xbea1cd87	-0.31602117
57	0x3dc8ad59	0.097986884
58	0xbe3d1c85	-0.1846791
59	0x3e587af7	0.21140657
60	0xc004c5f0	-2.0745811
61	0xbe1edca7	-0.1551386
62	0xbf210a32	-0.6290618
63	0xbe6ec364	-0.23316723
64	0xc00b62e0	-2.1779099
65	0xbfb86f33	-1.4408935
66	0x3ee9d12c	0.45667398
67	0x3eb231a0	0.34803486
68	0xbff70e61	-1.9301263
69	0x3e996d8f	0.299664
70	0xbe8302ab	-0.25587973
71	0xc007588c	-2.1147795
72	0xbeda2bc7	-0.42611524
73	0xbdfca299	-0.123357005
74	0x3ea6235a	0.32448846
75	0xbf17737b	-0.59160584
76	0xc00d381e	-2.2065501
77	0xc012053a	-2.281569
78	0x3ebaa648	0.36454988
79	0xbe552ff6	-0.20819077
80	0xbfbc0cd6	-1.4691417
81	0xbff8f1da	-1.9448807
82	0x3f3fa489	0.74860436
83	0xbf8396ff	-1.0280455
84	0xbe8e6655	-0.27812448
85	0xbf8846a6	-1.064656
86	0x3ec41719	0.38298872
87	0xbf9c0fd4	-1.219233
88	0xbf110bb5	-0.5665849
89	0xbfecd6c9	-1.8503047
90	0xbf087475	-0.533027
91	0x3e867f4f	0.26269004
92	0xbfab5557	-1.3385419
93	0xbd492b86	-0.049113773
94	0x3f306ac4	0.6891291
95	0xbff6188f	-1.9226245
96	0x3bfec6f5	0.0077751824
97	0x3eb0c033	0.34521636
98	0xbf864b06	-1.0491645
99	0x3df90a0a	0.12160118
100	0xbf9d6756	-1.2297161
101	0xbf82d0bc	-1.0219951
102	0xbfb28f0b	-1.3949903
103	0x3f0b7f9f	0.5449161
104	0xc0016411	-2.0217326
105	0xbf050b0f	-0.5197
106	0xbd6c5903	-0.057702076
107	0xbf059943	-0.52186984
108	0xc004be35	-2.0741093
109	0xbeee0ebd	-0.4649562
110	0x3f07ac26	0.5299705
111	0xbe1a6a1c	-0.1507954
112	0xbfd82826	-1.6887252
113	0x3e0ce683	0.13759808
114	0xbf001d68	-0.5004487
115	0x3e3b33f3	0.18281536
116	0xbebfefe7	-0.37487718
117	0x3aac07f8	0.0013124933
118	0x3e21a538	0.15785682
119	0xbfb3c7e3	-1.4045376
120	0xbfbe90bb	-1.4887918
121	0xbfb2ed7c	-1.3978724
122	0xbf84613f	-1.0342177
123	0x3c976592	0.01848105
124	0x3f23f9a5	0.640528
125	0x3f10859e	0.56453884
126	0x3d8adb97	0.06780165
127	0xbfff9366	-1.9966857
128	0xbf3c5032	-0.7355987
129	0x3e07d994	0.13266593
130	0xbfb4601b	-1.4091829
131	0x3eb97299	0.36220244
132	0xbe9cee89	-0.30650738
133	0xba21016c	-0.00061418745
134	0xbf478bdb	-0.7794778
135	0xbda24b71	-0.079245456
136	0xc0125d38	-2.2869396
137	0x3d60ceed	0.05488484
138	0xbdd5d895	-0.104417
139	0x3e0176b2	0.12642935
140	0xbea931b2	-0.33045727
141	0xbe5d8e9f	-0.21636437
142	0xbfd3f549	-1.655923
143	0x3eee3d7d	0.46531287
144	0xbfb8121b	-1.4380525
145	0xbee96258	-0.45582843
146	0x3ea65f97	0.32494804
147	0x3e08275f	0.13296269
148	0x3e4de2e3	0.20106082
149	0xbdc86450	-0.09784758
150	0xbfabfa8c	-1.3435836
151	0xbf9ca606	-1.2238166
152	0xc002164f	-2.0326116
153	0x3e3ffd4c	0.18748969
154	0x3f2fc957	0.68666595
155	0xbf886dab	-1.0658468
156	0xbff01d7a	-1.8758996
157	0xbf0bce17	-0.54611343
158	0xbf9cd424	-1.225224
159	0x3e092fdc	0.13397163
160	0xbfeaa69a	-1.8332093
161	0xbe2e38f9	-0.17013921
162	0xbfd20259	-1.6406966
163	0xbd8c1448	-0.06839806
164	0x3b8aba7c	0.0042336565
165	0x3ed97020	0.42468357
166	0x3d59548b	0.053059142
167	0xbef2efab	-0.47448477

l3.bias f4 [21]
0	0xbe5718fc	-0.21005625
1	0x3deb0a44	0.114765674
2	0x3ceab118	0.028648898
3	0x3e2ec617	0.17067753
4	0xbe8d3ba2	-0.2758456
5	0x3d78a5c4	0.06070496
6	0x3e98593b	0.29755577
7	0xbe7808f6	-0.24222168
8	0x3dfc0ff1	0.12307728
9	0x3e1519cc	0.14560622
10	0x3da17b4d	0.07884846
11	0x3e0251e1	0.12726547
12	0xbe620a82	-0.22074321
13	0xbec8fe6b	-0.39256606
14	0xbeb7c3bb	-0.35891518
15	0xbe28619e	-0.16443488
16	0xbda00d8e	-0.07815085
17	0x3d74fadd	0.059809554
18	0xbf1963e9	-0.59918076
19	0xbc47a972	-0.012186395
20	0x3d588c2b	0.05286805
